…
我們會再介紹。\n","\n","How can we get the output of a specific layer of CNN? We can modify the model definition, make the forward function not only return loss but also retrun the activation map. But this is difficult to maintain the code. As a result, pytorch offers a better solution: **hook**\n"]},{"cell_type":"code","metadata":{"id":"BRqCZNd7-Hjb","colab":{"base_uri":"https://localhost:8080/"},"outputId":"3bead981-e861-4853-e350-389505d24a53"},"source":["model"],"execution_count":null,"outputs":[{"output_type":"execute_result","data":{"text/plain":["Classifier(\n","  (cnn): Sequential(\n","    (0): Conv2d(3, 128, kernel_size=(3, 3), stride=(1, 1), padding=(1, 1))\n","    (1): BatchNorm2d(128, eps=1e-05, momentum=0.1, affine=True, track_running_stats=True)\n","    (2): ReLU()\n","    (3): Conv2d(128, 128, kernel_size=(3, 3), stride=(1, 1), padding=(1, 1))\n","    (4): BatchNorm2d(128, eps=1e-05, momentum=0.1, affine=True, track_running_stats=True)\n","    (5): ReLU()\n","    (6): Conv2d(128, 128, kernel_size=(3, 3), stride=(1, 1), padding=(1, 1))\n","    (7): BatchNorm2d(128, eps=1e-05, momentum=0.1, affine=True, track_running_stats=True)\n","    (8): ReLU()\n","    (9): MaxPool2d(kernel_size=2, stride=2, padding=0, dilation=1, ceil_mode=False)\n","    (10): Conv2d(128, 128, kernel_size=(3, 3), stride=(1, 1), padding=(1, 1))\n","    (11): BatchNorm2d(128, eps=1e-05, momentum=0.1, affine=True, track_running_stats=True)\n","    (12): ReLU()\n","    (13): Conv2d(128, 128, kernel_size=(3, 3), stride=(1, 1), padding=(1, 1))\n","    (14): BatchNorm2d(128, eps=1e-05, momentum=0.1, affine=True, track_running_stats=True)\n","    (15): ReLU()\n","    (16): Conv2d(128, 128, kernel_size=(3, 3), stride=(1, 1), padding=(1, 1))\n","    (17): BatchNorm2d(128, eps=1e-05, momentum=0.1, affine=True, track_running_stats=True)\n","    (18): ReLU()\n","    (19): MaxPool2d(kernel_size=2, stride=2, padding=0, dilation=1, ceil_mode=False)\n","    (20): Conv2d(128, 256, kernel_size=(3, 3), stride=(1, 1), padding=(1, 1))\n","    (21): BatchNorm2d(256, eps=1e-05, momentum=0.1, affine=True, track_running_stats=True)\n","    (22): ReLU()\n","    (23): Conv2d(256, 256, kernel_size=(3, 3), stride=(1, 1), padding=(1, 1))\n","    (24): BatchNorm2d(256, eps=1e-05, momentum=0.1, affine=True, track_running_stats=True)\n","    (25): ReLU()\n","    (26): Conv2d(256, 256, kernel_size=(3, 3), stride=(1, 1), padding=(1, 1))\n","    (27): BatchNorm2d(256, eps=1e-05, momentum=0.1, affine=True, track_running_stats=True)\n","    (28): ReLU()\n","    (29): MaxPool2d(kernel_size=2, stride=2, padding=0, dilation=1, ceil_mode=False)\n","    (30): Conv2d(256, 512, kernel_size=(3, 3), stride=(1, 1), padding=(1, 1))\n","    (31): BatchNorm2d(512, eps=1e-05, momentum=0.1, affine=True, track_running_stats=True)\n","    (32): ReLU()\n","    (33): MaxPool2d(kernel_size=2, stride=2, padding=0, dilation=1, ceil_mode=False)\n","    (34): Conv2d(512, 512, kernel_size=(3, 3), stride=(1, 1), padding=(1, 1))\n","    (35): BatchNorm2d(512, eps=1e-05, momentum=0.1, affine=True, track_running_stats=True)\n","    (36): ReLU()\n","    (37): MaxPool2d(kernel_size=2, stride=2, padding=0, dilation=1, ceil_mode=False)\n","  )\n","  (fc): Sequential(\n","    (0): Linear(in_features=8192, out_features=1024, bias=True)\n","    (1): ReLU()\n","    (2): Dropout(p=0.3, inplace=False)\n","    (3): Linear(in_features=1024, out_features=11, bias=True)\n","  )\n",")"]},"metadata":{"tags":[]},"execution_count":18}]},{"cell_type":"code","metadata":{"id":"sVJlyj01b_A4","executionInfo":{"status":"ok","timestamp":1621929426516,"user_tz":-480,"elapsed":15,"user":{"displayName":"張君豪","photoUrl":"","userId":"16163004736578535617"}}},"source":["def normalize(image):\n","  return (image - image.min()) / (image
…
